CPU(i7)でのテスト　

runfile('C:/Users/hkawaguc.ZENYAKU/GitHub/Hello-World/mnist_mlp.py', wdir='C:/Users/hkawaguc.ZENYAKU/GitHub/Hello-World')

Using TensorFlow backend.
60000 train samples
10000 test samples
_________________________________________________________________
Layer (type)                 Output Shape              Param #   
=================================================================
dense_1 (Dense)              (None, 512)               401920    
_________________________________________________________________
dropout_1 (Dropout)          (None, 512)               0         
_________________________________________________________________
dense_2 (Dense)              (None, 512)               262656    
_________________________________________________________________
dropout_2 (Dropout)          (None, 512)               0         
_________________________________________________________________
dense_3 (Dense)              (None, 10)                5130      
=================================================================
Total params: 669,706
Trainable params: 669,706
Non-trainable params: 0
_________________________________________________________________
Train on 60000 samples, validate on 10000 samples
Epoch 1/20
60000/60000 [==============================] - 7s 116us/step - loss: 0.2468 - acc: 0.9235 - val_loss: 0.1151 - val_acc: 0.9636
Epoch 2/20
…
